…
2025-08-04 11:00:19,842 [INFO] - Using device: cuda:0
2025-08-04 11:00:19,842 [INFO] - Loss function:
2025-08-04 11:00:19,842 [INFO] - CrossEntropyLoss()
2025-08-04 11:00:32,004 [INFO] - Loading checkpoint /workspace/CellViT-plus-plus/checkpoints/CellViT-SAM-H-x40-AMP.pth
2025-08-04 11:00:32,100 [INFO] - <All keys matched successfully>
==========================================================================================
Layer (type:depth-idx)                   Output Shape              Param #
==========================================================================================
LinearClassifier                         [1, 8]                    --
├─Linear: 1-1                            [1, 128]                  163,968
├─ReLU: 1-2                              [1, 128]                  --
├─Dropout: 1-3                           [1, 128]                  --
├─Linear: 1-4                            [1, 8]                    1,032
==========================================================================================
Total params: 165,000
Trainable params: 165,000
Non-trainable params: 0
Total mult-adds (M): 0.17
==========================================================================================
Input size (MB): 0.01
Forward/backward pass size (MB): 0.00
Params size (MB): 0.66
Estimated Total Size (MB): 0.67
==========================================================================================
2025-08-04 11:00:33,152 [INFO] - 
==========================================================================================
Layer (type:depth-idx)                   Output Shape              Param #
==========================================================================================
LinearClassifier                         [1, 8]                    --
├─Linear: 1-1                            [1, 128]                  163,968
├─ReLU: 1-2                              [1, 128]                  --
├─Dropout: 1-3                           [1, 128]                  --
├─Linear: 1-4                            [1, 8]                    1,032
==========================================================================================
Total params: 165,000
Trainable params: 165,000
Non-trainable params: 0
Total mult-adds (M): 0.17
==========================================================================================
Input size (MB): 0.01
Forward/backward pass size (MB): 0.00
Params size (MB): 0.66
Estimated Total Size (MB): 0.67
==========================================================================================
…
